…
 = 5,\n                       activation = \"tanh\", \n                       padding = \"same\")\ng <- keras_model(gi, go)\n```", "```py\n# Summary of generator network model \nsummary(g)\n____________________________________________________________________________\nLayer (type)                      Output Shape                 Param # \n============================================================================\ninput_7 (InputLayer)              [(None, 28)]                   0 \n____________________________________________________________________________\ndense_4 (Dense)                   (None, 6272)                181888 \n____________________________________________________________________________\nleaky_re_lu_8 (LeakyReLU)         (None, 6272)                   0 \n____________________________________________________________________________\nreshape_2 (Reshape)               (None, 14, 14, 32)             0 \n____________________________________________________________________________\nconv2d_6 (Conv2D)                 (None, 14, 14, 32)            25632 \n____________________________________________________________________________\nleaky_re_lu_9 (LeakyReLU)          (None, 14, 14, 32)             0 \n____________________________________________________________________________\nconv2d_transpose_2 (Conv2DTranspose) (None, 28, 28, 32)         16416 \n____________________________________________________________________________\nleaky_re_lu_10 (LeakyReLU)          (None, 28, 28, 32)            0 \n____________________________________________________________________________\nconv2d_7 (Conv2D)                    (None, 28, 28, 1)           801 \n============================================================================\nTotal params: 224,737\nTrainable params: 224,737\nNon-trainable params: 0\n_______________________________________________________________________________________\n```", "```py\n# Discriminator network\ndi <- layer_input(shape = c(h, w, c))\ndo <- di %>% \n         layer_conv_2d(filters = 64, kernel_size = 4) %>% \n         layer_activation_leaky_relu() %>% \n         layer_flatten() %>%\n         layer_dropout(rate = 0.3) %>%  \n         layer_dense(units = 1, activation = \"sigmoid\")\nd <- keras_model(di, do)\n```", "```py\n# Summary of discriminator network model \nsummary(d)\n___________________________________________________\nLayer (type) Output Shape Param # \n===================================================\ninput_10 (InputLayer) [(None, 28, 28, 1)] 0 \n___________________________________________________\nconv2d_12 (Conv2D) (None, 25, 25, 64) 1088 \n____________________________________________________\nleaky_re_lu_17 (LeakyReLU) (None, 25, 25, 64) 0 \n____________________________________________________\nflatten_2 (Flatten) (None, 40000) 0 \n____________________________________________________\ndropout_2 (Dropout) (None, 40000) 0 \n____________________________________________________\ndense_7 (Dense) (None, 1) 40001 \n====================================================\nTotal params: 41,089\nTrainable params: 41,089\nNon-trainable params: 0\n_____________________________________________________\n```", "```py\n# Compile discriminator network\nd %>% compile(optimizer = 'rmsprop',\n         loss = \"binary_crossentropy\")\n```", "```py\n# Freeze weights and compile\nfreeze_weights(d) \ngani <- layer_input(shap
…
