…
tivation = 'relu') %>%  \n         layer_max_pooling_2d(pool_size = c(2,2)) %>% \n         layer_dropout(rate = 0.25) %>%   \n         layer_flatten() %>% \n         layer_dense(units = 64, activation = 'relu') %>%  \n         layer_dropout(rate = 0.25) %>% \n         layer_dense(units = 10, activation = 'softmax')\n```", "```py\n# Model summary\nsummary(model)\n__________________________________________________________________\nLayer (type                   Output Shape             Param #        \n==================================================================\nconv2d_1 (Conv2D)          (None, 26, 26, 32)            320            \n__________________________________________________________________\nconv2d_2 (Conv2D)          (None, 24, 24, 64)            18496          \n__________________________________________________________________\nmax_pooling2d_1 (MaxPooling2D) (None, 12, 12, 64)         0              \n__________________________________________________________________\ndropout_1 (Dropout)        (None, 12, 12, 64)             0              \n__________________________________________________________________\nflatten_1 (Flatten)        (None, 9216)                   0              \n__________________________________________________________________\ndense_1 (Dense)            (None, 64)                    589888         \n__________________________________________________________________\ndropout_2 (Dropout)        (None, 64)                     0              \n__________________________________________________________________\ndense_2 (Dense)            (None, 10)                     650            \n==================================================================\nTotal params: 609,354\nTrainable params: 609,354\nNon-trainable params: 0\n___________________________________________________________________\n```", "```py\n# Compile model\nmodel %>% compile(loss = 'categorical_crossentropy',\n                  optimizer = optimizer_adadelta(),\n                  metrics = 'accurac
…
