…
ut_shape = c(21)) %>%\n         layer_dropout(rate = 0.4) %>%\n         layer_dense(units = 30, activation = 'relu') %>%\n         layer_dropout(rate = 0.3) %>%\n         layer_dense(units = 20, activation = 'relu') %>%\n         layer_dropout(rate = 0.2) %>%\n         layer_dense(units = 3, activation = 'softmax')\nsummary(model)\n\nOUTPUT\n__________________________________________________________________________\nLayer (type)                  Output Shape                 Param #     \n==========================================================================\ndense_1 (Dense)                (None, 40)                   880          \n__________________________________________________________________________\ndropout_1 (Dropout)            (None, 40)                    0            \n__________________________________________________________________________\ndense_2 (Dense)                (None, 30)                   1230         \n__________________________________________________________________________\ndropout_2 (Dropout)            (None, 30)                    0            \n__________________________________________________________________________\ndense_3 (Dense)                (None, 20)                   620          \n__________________________________________________________________________\ndropout_3 (Dropout)            (None, 20)                    0            \n__________________________________________________________________________\ndense_4 (Dense)                (None, 3)                     63           \n==========================================================================\nTotal params: 2,793\nTrainable params: 2,793\nNon-trainable params: 0\n___________________________________________________________________________\n\n# Compile model\n model %>% \n   compile(loss = 'categorical_crossentropy', \n           optimizer = 'adam',\n           metrics = 'accuracy')\n\n# Fit model\nmo
…
