…
layer_dense(units = 100, activation = 'relu', input_shape = c(13)) %>% \n layer_dropout(rate = 0.4) %>%\n layer_dense(units = 50, activation = 'relu') %>%\n layer_dropout(rate = 0.3) %>%\n layer_dense(units = 20, activation = 'relu') %>%\n layer_dropout(rate = 0.2) %>%\n layer_dense(units = 1)  \nsummary(model)\n\nOUTPUT\n ## ___________________________________________________________________________\n ## Layer (type)                     Output Shape                  Param # \n ## ===========================================================================\n ## dense_4 (Dense)                  (None, 100)                   1400 \n ## ___________________________________________________________________________\n ## dropout_1 (Dropout)              (None, 100)                   0 \n ## ___________________________________________________________________________\n ## dense_5 (Dense)                  (None, 50)                    5050 \n ## ___________________________________________________________________________\n ## dropout_2 (Dropout)              (None, 50)                    0 \n ## ___________________________________________________________________________\n ## dense_6 (Dense)                  (None, 20)                    1020 \n ## ___________________________________________________________________________\n ## dropout_3 (Dropout)              (None, 20)                    0 \n ## ___________________________________________________________________________\n ## dense_7 (Dense)                  (None, 1)                     21 \n ## ===========================================================================\n ## Total params: 7,491\n ## Trainable params: 7,491\n ## Non-trainable params: 0\n ## _________________________________________________________________________\n\n# Compile model\nmodel %>% compile(loss = 'mse', \n                   optimizer = 'rmsprop', \n                   metrics = 'mae')\n\n# Fit model\nmodel
…
units = 100, activation = 'relu', input_shape = c(13)) %>%  \n   layer_dropout(rate = 0.4) %>% \n   layer_dense(units = 50, activation = 'relu') %>%\n   layer_dropout(rate = 0.2) %>%\n   layer_dense(units = 25, activation = 'relu') %>%\n   layer_dropout(rate = 0.1) %>%\n   layer_dense(units = 1)\n summary(model)\n\nOUTPUT\n## ___________________________________________________________________________\n ## Layer (type)                     Output Shape                  Param # \n ## ===========================================================================\n ## dense_8 (Dense)                  (None, 100)                   1400 \n ## ___________________________________________________________________________\n ## dropout_4 (Dropout)              (None, 100)                   0 \n ## ___________________________________________________________________________\n ## dense_9 (Dense)                  (None, 50)                    5050 \n ## ___________________________________________________________________________\n ## dropout_5 (Dropout)              (None, 50)                    0 \n ## ___________________________________________________________________________\n ## dense_10 (Dense)                 (None, 25)                    1275 \n ## ___________________________________________________________________________\n ## dropout_6 (Dropout)              (None, 25)                    0 \n ## ___________________________________________________________________________\n ## dense_11 (Dense)                 (None, 1)                     26 \n ## ===========================================================================\n ## Total params: 7,751\n ## Trainable params: 7,751\n ## Non-trainable params: 0\n ## ___________________________________________________________________________\n```", "```py\n# Compile model\nmodel %>% compile(loss = 'mse', \n                   optimizer = optimizer_rmsprop(lr = 0.005),\n                   metri
…
