…
             kernel_size = c(3,3), \n                       activation = 'sigmoid',\n                       padding = 'same')\nsummary(decoder)\nOutput\nTensor(\"conv2d_25/Sigmoid:0\", shape=(?, 28, 28, 1), dtype=float32)\n```", "```py\n# Autoencoder\nae_model <- keras_model(inputs = input_layer, outputs = decoder)\nsummary(ae_model)\n__________________________________________________________________________\nLayer (type)                      Output Shape               Param #       \n==========================================================================\ninput_5 (InputLayer)              (None, 28, 28, 1)            0             \n__________________________________________________________________________\nconv2d_21 (Conv2D)                (None, 28, 28, 8)            80            \n__________________________________________________________________________\nmax_pooling2d_9 (MaxPooling2D)    (None, 14, 14, 8)             0             \n__________________________________________________________________________\nconv2d_22 (Conv2D)                (None, 14, 14, 4)            292           \n__________________________________________________________________________\nmax_pooling2d_10 (MaxPooling2D)   (None, 7, 7, 4)               0             \n__________________________________________________________________________\nconv2d_23 (Conv2D)                (None, 7, 7, 4)              148           \n___________________________________________________________________________\nup_sampling2d_9 (UpSampling2D)    (None, 14, 14, 4)             0             \n___________________________________________________________________________\nconv2d_24 (Conv2D)                (None, 14, 14, 8)            296           \n___________________________________________________________________________\nup_sampling2d_10 (UpSampling2D)   (None, 28, 28, 8)             0             \n___________________________________________________________________________\nconv2d_25 (Conv2D)                (None, 28, 28, 1)             73           \n===========================================================================\nTotal params: 889\nTrainable params: 889\nNon-trainable params: 0\n____________________________________________________________________________________\n```", "```py\n# Compile model\nae_model %>% compile( loss='mean_squared_error',\n         optimizer='adam')\n\n# Fit model\nmodel_one <- ae_model %>% fit(tra
…
 \n                       kernel_size = c(3,3), \n                       activation = 'sigmoid',\n                       padding = 'same')\nsummary(decoder)\nOutput\nTensor(\"conv2d_15/Sigmoid:0\", shape=(?, 28, 28, 1), dtype=float32)\n```", "```py\n# Autoencoder\nae_model <- keras_model(inputs = input_layer, outputs = decoder)\nsummary(ae_model)\n\n______________________________________________________________________\nLayer (type)                    Output Shape             Param #       \n======================================================================\ninput_3 (InputLayer)           (None, 28, 28, 1)           0             \n______________________________________________________________________\nconv2d_11 (Conv2D)             (None, 28, 28, 32)         320           \n______________________________________________________________________\nmax_pooling2d_5 (MaxPooling2D) (None, 14, 14, 32)          0             \n_______________________________________________________________________\nconv2d_12 (Conv2D)             (None, 14, 14, 32)         9248          \n_______________________________________________________________________\nmax_pooling2d_6 (MaxPooling2D) (None, 7, 7, 32)            0             \n_______________________________________________________________________\nconv2d_13 (Conv2D)             (None, 7, 7, 32)           9248          \n_______________________________________________________________________\nup_sampling2d_5 (UpSampling2D) (None, 14, 14, 32)          0             \n_______________________________________________________________________\nconv2d_14 (Conv2D)             (None, 14, 14, 32)         9248          \n_______________________________________________________________________\nup_sampling2d_6 (UpSampling2D) (None, 28, 28, 32)          0             \n________________________________________________________________________\nconv2d_15 (Conv2D)             (None, 28, 28, 1)           289           \n========================================================================\nTotal params: 28,353\nTrainable params: 28,353\nNon-trainable params: 0\n________________________________________________________________________\n```", "```py\n# Compile model\nae_model %>% compile( loss='binary_crossentropy', optimizer='adam')\n```", "```py\n# Fit model\nmodel_two <- ae_model %>% fit(trainn, \
…
