…
  layer_conv_2d(filters = 32, kernel_size = c(3,3), activation = 'relu') %>%  \n  layer_max_pooling_2d(pool_size = c(2,2)) %>% \n  layer_dropout(rate = 0.25) %>%   \n  layer_flatten() %>% \n  layer_dense(units = 256, activation = 'relu') %>%  \n  layer_dropout(rate = 0.25) %>% \n  layer_dense(units = 10, activation = 'softmax') \nsummary(model)\n_________________________________________________________________________\nLayer (type)                    Output Shape                Param # \n=========================================================================\nconv2d_6 (Conv2D)               (None, 222, 222, 32)         896 \n_________________________________________________________________________\nconv2d_7 (Conv2D)               (None, 220, 220, 32)         9248 \n_________________________________________________________________________\nmax_pooling2d_22 (MaxPooling2D) (None, 110, 110, 32)          0 \n_________________________________________________________________________\ndropout_6 (Dropout)             (None, 110, 110, 32)          0 \n_________________________________________________________________________\nflatten_18 (Flatten)            (None, 387200)                0 \n__________________________________________________________________________\ndense_35 (Dense)                (None, 256)                99123456 \n__________________________________________________________________________\ndropout_7 (Dropout)             (None, 256)                   0 \n__________________________________________________________________________\ndense_36 (Dense)                (None, 10)                   2570 \n==========================================================================\nTotal params: 99,136,170\nTrainable params: 99,136,170\nNon-trainable params: 0\n___________________________________________________________________________________________\n\n# Compile\nmodel %>% compile(loss = 'categorical_crossentropy',\n optimizer = 'rmsprop', \n metrics = 'accuracy')\n\n# Fit\nmodel_one <- model %>
…
                              include_top = FALSE,\n                                   input_shape = c(224, 224, 3))\n\nmodel <- keras_model_sequential() %>% \n         pretrained %>% \n         layer_flatten() %>% \n         layer_dense(units = 256, activation = \"relu\") %>% \n         layer_dense(units = 10, activation = \"softmax\")\nsummary(model)\n_______________________________________________________________________\nLayer (type)                   Output Shape              Param # \n=======================================================================\nresnet50 (Model)               (None, 7, 7, 2048)        23587712 \n________________________________________________________________________\nflatten_6 (Flatten)            (None, 100352)               0 \n________________________________________________________________________\ndense_12 (Dense)               (None, 256)               25690368 \n________________________________________________________________________\ndense_13 (Dense)               (None, 10)                  2570 \n========================================================================\nTotal params: 49,280,650\nTrainable params: 49,227,530\nNon-trainable params: 53,120\n_________________________________________________________________________\n```", "```py\n# Freeze weights of resnet50 network\nfreeze_weights(pretrained)\n\n# Compile\nmodel %>% compile(loss = 'categorical_crossentropy',\n optimizer = 'rmsprop', \n metrics = 'accuracy')\n\nsummary(model)\n______________________________________________________\nLayer (type) Output Shape Param # \n======================================================\nresnet50 (Model) (None, 7, 7, 2048) 23587712 \n______________________________________________________\nflatten_6 (Flatten) (None, 100352) 0 \n______________________________________________________\ndense_12 (Dense) (None, 256) 25690368 \n______________________________________________________\ndense_13 (Dense) (None, 10) 2570 \n======================================================\nTotal params: 49,280,650\nTrainable params: 25,692,938\nNon-trainable params: 23,587,712\n______________________________________________________\n```", "```py\n# Fit model\nmodel_two <- model %>% fit(trainx, \n                        trainy, \n                        epochs = 10, \n                        batch_size = 10, \n               
…
