…
(encoded)\n\n# \"decoded\" is the lossy reconstruction of the input\ndecoded = Dense(encoding_dim * 2, activation='relu')(encoded)\ndecoded = Dense(encoding_dim * 4, activation='relu')(decoded)\ndecoded = Dense(input_dim, activation='sigmoid')(decoded)\n\n# this model maps an input to its reconstruction\nautoencoder = Model(input_layer, decoded)\n\nautoencoder.summary()\n_______________________________________________________________\nLayer (type)                 Output Shape              Param #   =================================================================\ninput_1 (InputLayer)         (None, 12288)             0         _______________________________________________________________\ndense_1 (Dense)              (None, 1024)              12583936  _______________________________________________________________\ndense_2 (Dense)              (None, 512)               524800    _______________________________________________________________\ndense_3 (Dense)              (None, 256)               131328    _______________________________________________________________\ndense_4 (Dense)              (None, 512)               131584    _______________________________________________________________\ndense_5 (Dense)              (None, 1024)              525312    _______________________________________________________________\ndense_6 (Dense)              (None, 12288)             12595200  =================================================================\nTotal params: 26,492,160\nTrainable params: 26,492,160\nNon-trainable params: 0\n_________________________________________________________________\n```", "```py\nautoencoder.compile(optimizer='adam', loss='mse')\n\nautoencoder.fit(x_train, x_train, epochs=100, batch_size=20, verbose=1)\n\nEpoch 1/100\n875/875 [===================
…
same')(l2)\n\n# Latent Space, with dimension (None, 32, 32, 16)\nencoded = MaxPooling2D((1,1), padding='same')(l3) \n\n# Decoder Part\nl8 = Conv2D(16, (3, 3), activation='relu', padding='same')(encoded)\nl9 = UpSampling2D((2, 2))(l8)\ndecoded = Conv2D(3, (3, 3), activation='sigmoid', padding='same')(l9)\n\nautoencoder = Model(input_img, decoded)\n\nautoencoder.summary()\n_______________________________________________________________\nLayer (type)                 Output Shape              Param #   =================================================================\ninput_2 (InputLayer)         (None, 64, 64, 3)         0         _______________________________________________________________\nconv2d_5 (Conv2D)            (None, 64, 64, 32)        896       _______________________________________________________________\nmax_pooling2d_3 (MaxPooling2 (None, 32, 32, 32)        0         _______________________________________________________________\nconv2d_6 (Conv2D)            (None, 32, 32, 16)        4624      _______________________________________________________________\nmax_pooling2d_4 (MaxPooling2 (None, 32, 32, 16)        0         _______________________________________________________________\nconv2d_7 (Conv2D)            (None, 32, 32, 16)        2320      _______________________________________________________________\nup_sampling2d_2 (UpSampling2 (None, 64, 64, 16)        0         _______________________________________________________________\nconv2d_8 (Conv2D)            (None, 64, 64, 3)         435       =================================================================\nTotal params: 8,275\nTrainable params: 8,275\nNon-trainable params: _________________________________________________________________\n```", "```py\n# Check shape of a layer\nimport keras\nkeras.backend.int_shape(encoded)\n\n(None, 32, 32, 16)\n\n```", "```py\nautoencoder.compile(optimizer='adam', loss='mse')\nautoencoder.fi
…
