…
(32, (8, 8), strides=(4, 4), activation='relu'))\nmodel.add(Convolution2D(64, (4, 4), strides=(2, 2), activation='relu'))\nmodel.add(Convolution2D(64, (3, 3), strides=(1, 1), activation='relu'))\nmodel.add(Flatten())\nmodel.add(Dense(512, activation='relu'))\n# Last layer: no. of neurons corresponds to action space\n# Linear activation\nmodel.add(Dense(nb_actions, activation='linear'))  \nprint(model.summary())\n\n_____________________________________________________________\nLayer (type) Output Shape Param # \n=============================================================\npermute_2 (Permute) (None, 84, 84, 4) 0 \n_____________________________________________________________\nconv2d_4 (Conv2D) (None, 20, 20, 32) 8224 \n_____________________________________________________________\nconv2d_5 (Conv2D) (None, 9, 9, 64) 32832 \n_____________________________________________________________\nconv2d_6 (Conv2D) (None, 7, 7, 64) 36928 \n_____________________________________________________________\nflatten_2 (Flatten) (None, 3136) 0 \n_____________________________________________________________\ndense_3 (Dense) (None, 512) 1606144 \n_____________________________________________________________\ndense_4 (Dense) (None, 6) 3078 \n=============================================================\nTotal params: 1,687,206\nTrainable params: 1,687,206\nNon-trainable params: 0\n______________________________________________________________\nNone\n\n```", "```py\nmemory = SequentialMemory(limit=1000000, window_length=WINDOW_LENGTH)\n```", "```py\npolicy = LinearAnnealedPolicy(EpsGreedyQPolicy(), \n                              at
…
