…
sses)\ny_test =keras.utils.to_categorical(y_test,n_classes)\n\n```", "```py\nmodel=Sequential()\nmodel.add(Dense(64,activation='relu',input_shape=(784,)))\nmodel.add(BatchNormalization())\nmodel.add(Dropout(0.5))\nmodel.add(Dense(64,activation='relu'))\nmodel.add(BatchNormalization())\nmodel.add(Dropout(0.5))\nmodel.add(Dense(10,activation='softmax'))\nmodel.summary()\n_______________________________________________________________\nLayer (type)                 Output Shape              Param #   \n=================================================================\ndense_1 (Dense)              (None, 64)                50240     \n_______________________________________________________________\nbatch_normalization_1 (Batch (None, 64)                256       \n_______________________________________________________________\ndropout_1 (Dropout)          (None, 64)                0         \n_______________________________________________________________\ndense_2 (Dense)              (None, 64)                4160      \n_______________________________________________________________\nbatch_normalization_2 (Batch (None, 64)                256       \n_______________________________________________________________\ndropout_2 (Dropout)          (None, 64)                0         \n_______________________________________________________________\ndense_3 (Dense)              (None, 10)                650       \n=================================================================\nTotal params: 55,562\nTrainable params: 55,306\nNon-trainable params: 256_______________________________________________________________\n```", "```py\nmodel.compile(loss='categorical_crossentropy',optimizer='adam',metrics=['accuracy'])\n```", "```py\nmodel.fit(X_train, y_train, batch_size= 128, epochs= 200, verbose= 1, va
…
